data.pth (torch, 5482 bytes, 6 tensors)

l1.weight f4 [8, 54]
000000 08 f1 14 3f d8 70 18 3f 2b bf 60 be e4 68 9f be
       0.58180285 0.59547186 -0.21947925 -0.31134713
000010 d3 78 15 bf cc 06 f9 be 1f 37 cd 3d 1c 3c a0 bc
       -0.5838749 -0.48637998 0.10020279 -0.019559912
000020 76 74 7f 3d f3 bc c3 bb ee ca 3d be 11 ea 05 3f
       0.062366925 -0.0059734522 -0.18534443 0.5231028
000030 b4 90 d6 3e c2 0b d1 3e 38 7d b6 3e 22 8c b5 3e
       0.41907275 0.40829283 0.3564241 0.35458475
000040 37 7d 4a be 5f 12 f9 be 44 23 b2 3c 5f c7 f5 be
       -0.19774328 -0.4864683 0.021745332 -0.4800367
000050 40 b2 db 3e 46 01 f9 be f9 f5 f8 be 5a 2f 9f 3e
       0.4290943 -0.48633784 -0.48625162 0.31090814
000060 89 2d 75 3e d0 5f 91 bd 6b 21 8b bd 3d 54 c7 3e
       0.23943152 -0.07098353 -0.06793483 0.38931456
000070 c0 d5 1d 3d 30 82 e7 3e 2a 5c 8b be 61 de ef 3e
       0.038533926 0.45216513 -0.27218753 0.4684935
000080 22 90 dc 3e bd 89 2a be d3 f2 fe 3e 1b 4b 94 3e
       0.43078715 -0.16654105 0.49794635 0.2896355
000090 6a d7 d1 bd 05 f4 e0 3d 4f 20 a9 3d 32 8c 5a 3c
       -0.10246165 0.10984043 0.082581155 0.013339089
0000a0 ac e8 e4 be e3 e8 32 bd 43 2d b1 3e 82 a2 f2 3e
       -0.44708765 -0.04367913 0.34604844 0.4738961
0000b0 ea 28 b1 3e 89 4f e5 3e 12 17 87 3f 31 94 b5 3e
       0.34601527 0.44787243 1.0553916 0.35464624
0000c0 2e c4 d4 bd ea ce ae bd 06 02 eb 3e 15 d9 3a 3b
       -0.10388981 -0.085355595 0.4589998 0.0028510739
0000d0 11 1d 21 bd 37 1f 81 3e d3 fc 11 be 3d 98 cd 3e
       -0.03933436 0.25219128 -0.14256601 0.4015521
0000e0 3a 23 09 3f 1e 0a 6d 3e f3 ee d2 3e f1 4e 87 be
       0.53569376 0.2314839 0.4119793 -0.26427415
0000f0 36 6d 01 3f c0 9b ee 3e 05 07 df 3e a2 87 fd 3e
       0.5055727 0.46603203 0.43560043 0.49517542
000100 0e 09 d7 3d cd 13 d9 bd c0 31 3b 3e 4b 9a 99 be
       0.10499774 -0.1059948 0.18280697 -0.3000053
000110 14 18 e3 3e f7 cc 9a bd 10 68 cd 3d 68 4d 87 be
       0.44354308 -0.07558625 0.10029614 -0.26426244
000120 4e e3 73 be dc 76 09 3f 54 97 14 3c 2f 82 d9 3e
       -0.23817179 0.5369699 0.009069283 0.42482135
000130 ec 42 dc 3e 4b 27 5c 3e 50 00 14 3d 75 4a 8c 3e
       0.43019807 0.21499364 0.03613311 0.27400556
000140 04 11 61 be e5 0b 09 3f 55 eb 83 bd f9 ff 07 3f
       -0.21979147 0.53533775 -0.064413704 0.5312496
000150 65 d6 81 be 79 f0 08 be e4 ad b8 3c 6f 86 d9 3e
       -0.25358883 -0.13372983 0.022543855 0.42485377
000160 9f df 1c 3f eb 03 78 bc c7 97 d0 bd c7 77 fb 3e
       0.6127872 -0.015137653 -0.10185199 0.4911482
000170 a3 da a6 3e 5b 19 d9 3e ca ee 9d be ec cf a6 be
       0.32588682 0.42402157 -0.30846244 -0.32580507
000180 b5 a8 af bd 06 0c bc 3e b1 2b aa 3e d7 b8 ea 3e
       -0.085771 0.36727923 0.3323646 0.45844147
000190 41 9e d4 be 81 e1 e6 bc 71 d2 36 3e f2 05 f0 be
       -0.41526988 -0.0281837 0.17853715 -0.46879536
0001a0 c4 92 2f be bf 56 ac be 20 02 b6 3e ef ec b1 3e
       -0.1714583 -0.33659932 0.35548496 0.34751078
0001b0 3d f5 15 3c 08 ae 98 3e dc ba e2 3e 45 e2 00 3f
       0.009152708 0.29820275 0.44283187 0.5034526
0001c0 4a cb e5 3e 39 45 17 bf fc 78 b6 3e 11 2d 9d 3e
       0.4488166 -0.5909 0.3563918 0.30698445
0001d0 cd 52 a8 3e fc fe e1 3e 36 1d 2f 3f 74 13 2e bd
       0.32875672 0.4413985 0.6840395 -0.04249902
0001e0 23 bd 08 3e 53 2a 49 bd 6c e8 ad 3e 9d cb c7 bb
       0.133534 -0.04911263 0.33966386 -0.0060972706
0001f0 36 2c 18 3f b9 59 0b bf 41 a0 68 be ad 04 20 3f
       0.5944246 -0.5443378 -0.22717382 0.62507135
000200 f9 ab 2a 3e 06 64 1b 3f cf bd 39 3f 42 0c 52 3e
       0.16667165 0.606995 0.7255525 0.20512488
000210 90 99 49 3e ae 72 fe 3e 53 87 93 be 0c 4c 05 3f
       0.19687486 0.4969687 -0.28814182 0.52069163
000220 b4 87 8b be 28 3f 93 3e 5c 5d ce be 24 62 88 bd
       -0.2725197 0.28759122 -0.40305603 -0.06659344
000230 3f 34 3e be 33 11 19 3f da ee ae 3e f5 ff b0 3c
       -0.18574618 0.5979187 0.34166604 0.021606425
000240 76 ee 43 be cc f4 f4 3e 93 2a 09 3f 2d 48 fd 3e
       -0.19133934 0.47843015 0.5358059 0.49469128
000250 63 d3 8f be 33 76 b1 be e6 fc e6 3c 32 97 a3 3e
       -0.28090963 -0.3466049 0.028196763 0.3195129
000260 0b 55 ad 3e 9d 39 01 3f 18 51 f2 bd 94 d3 d0 3d
       0.33853945 0.50478536 -0.11831874 0.10196605
000270 ab cb 89 3e ba 67 17 bf d2 fb 24 bd 76 52 d1 be
       0.269132 -0.5914265 -0.040279217 -0.40883225
000280 43 f7 0b 3f 24 1e 32 3e f8 3e a3 3e 10 66 a2 bd
       0.54674166 0.1739431 0.3188398 -0.07929623
000290 9f 69 d0 3e 9a a9 d1 bd 00 07 3a bc 2e b6 ef 3e
       0.40705582 -0.10237427 -0.011354208 0.4681868
0002a0 43 6e ac 3e d7 e9 f2 3e d6 96 1f 3f e1 f6 0f 3f
       0.33677873 0.4744403 0.6233953 0.5623608
0002b0 a8 04 81 be 82 36 81 3e 40 d6 5a bd 40 7b 73 3e
       -0.25198865 0.252369 -0.05342698 0.23777485
0002c0 30 93 a0 bc 51 9a 0b 3e 96 de 26 be b1 f2 1b 3f
       -0.019601434 0.13633086 -0.16295847 0.6091719
0002d0 fa 17 4f be a8 08 fd be 32 7d 89 3e 55 fb f8 be
       -0.2022399 -0.49420667 0.2685333 -0.4862925
0002e0 b3 c3 bf be bd 25 20 be bf f1 cd 3e 90 cb e0 bd
       -0.37453994 -0.15639396 0.402235 -0.109763265
0002f0 f3 34 bb be 9f 70 6f be 5a d4 e6 bd 3f 4f e3 be
       -0.36563835 -0.23382805 -0.112709716 -0.44396397
000300 fe 8d c0 3e dd aa 9a 3e b3 e6 42 3e ed b8 09 3f
       0.3760833 0.30208483 0.19033317 0.537978
000310 e5 65 60 be a6 e0 75 3e a4 48 9f 3b ed a6 dc 3e
       -0.2191387 0.24011478 0.0048609544 0.43096104
000320 24 06 0b 3f c5 76 a1 3e 86 01 8c 3e 39 f0 e4 be
       0.54306245 0.31535926 0.27344912 -0.44714525
000330 5b 62 90 3e f0 44 47 be 2a 74 1d 3f 80 0d fe bd
       0.2820004 -0.19459891 0.6150538 -0.12404919
000340 e6 d3 33 3f 8a 75 61 3e 4d 94 3f be ee 25 ba be
       0.70245206 0.22017494 -0.18708916 -0.36357063
000350 9f 08 d3 3d aa 97 78 be 09 90 0b 3f 86 20 9d 3e
       0.10304379 -0.24276605 0.54516655 0.30688876
000360 e0 88 03 3e 32 0e 99 bd f2 c1 ac 3c 70 83 21 3c
       0.12845182 -0.07473411 0.021088574 0.009857997
000370 08 04 a2 3d 78 7b 4c bd d8 4c 77 bc 11 8b bf 3d
       0.07910925 -0.049922436 -0.015094005 0.09352697
000380 01 c1 a2 3d 6d cc 01 3d 06 f0 b5 3d 3e d4 d2 3d
       0.07946969 0.031689096 0.088836715 0.10294388
000390 b9 97 b2 bc ab 71 93 bd 56 30 82 3d 58 9c 97 bd
       -0.021800863 -0.07199415 0.063568756 -0.07402867
0003a0 40 2c 64 bd 20 b9 5d 3c b4 f6 95 bc 42 4d 91 3d
       -0.055706263 0.013532907 -0.018306114 0.07094814
0003b0 40 7d 59 bb a8 fd 96 3c c8 45 0b 3d da 6a 11 bd
       -0.0033186227 0.0184315 0.034002095 -0.035502292
0003c0 e8 68 7a bc a0 05 77 3d f2 7d ed 3d 80 65 d0 3c
       -0.015283801 0.0603081 0.11596288 0.025439024
0003d0 02 da 9a 3d 41 7c d4 bd 9e b3 c9 3d 4c 48 1e 3d
       0.07561113 -0.10375262 0.098487124 0.038643166
0003e0 30 3a 8a 3d 61 05 ba 3d ec 3e ee 3d 76 a1 48 bd
       0.0674938 0.09083057 0.11633095 -0.048982106
0003f0 78 85 7d bc 54 5b 80 bd 5c 8c d3 bd e4 e2 65 3d
       -0.015473716 -0.062674195 -0.10329506 0.056124583

l1.bias f4 [8]
000000 6e f2 f8 3e 9d 50 87 3e 6f 70 21 3f 9d a9 0e 3f
       0.4862246 0.2642869 0.63062185 0.5572756
000010 a3 97 0d be 93 4a 82 3f 89 3b fb 3e 36 d9 2e 3f
       -0.13827376 1.0179008 0.4906886 0.6830019

l2.weight f4 [8, 8]
000000 9d 50 e8 3d 8a e9 ce 3c de 17 fd 3c e3 68 a4 3f
       0.11343501 0.025257844 0.03089517 1.2844509
000010 43 77 16 3e 38 69 b4 3e 91 ec a1 3f 95 aa 06 bf
       0.14693932 0.35236526 1.2650319 -0.5260404
000020 5f 36 e4 3e b4 c8 81 bf 9b 12 56 bf a2 f8 af 3e
       0.44572732 -1.0139375 -0.8362214 0.3436938
000030 a5 99 23 3e 42 13 95 3f 90 73 2a 3f 41 fd 87 3f
       0.1597658 1.1646502 0.66582584 1.0624162
000040 1a 21 5e bf 15 47 54 be 90 c0 13 3e 12 09 11 bf
       -0.8676926 -0.2073024 0.14428926 -0.56654465
000050 50 06 b2 3d cb 9f 91 3f e3 1e 67 be 0c 8f 57 3f
       0.0869261 1.137689 -0.22570376 0.8420265
000060 9b 8d 78 bf d3 14 a9 3e 44 d7 29 3f 3b 6f 56 3f
       -0.9709107 0.330237 0.66344094 0.83763474
000070 cf 80 a1 be 67 3d 0d 3f 26 b2 2b 3f cc 5e b9 be
       -0.31543586 0.5517182 0.6706871 -0.36205137
000080 05 9b d5 3e be e0 66 3f 19 bf 94 3f 1e 6a 35 bf
       0.41719833 0.9018668 1.1620818 -0.70865047
000090 cd dc a9 be fe c6 4f 3f 27 92 f9 be f9 61 de be
       -0.3317627 0.81163013 -0.48744318 -0.43434122
0000a0 8c 50 99 3f 2d db 0a 3f 5b af 5a 3f 9a 76 16 3f
       1.1977706 0.54240686 0.8542382 0.5877472
0000b0 eb 0d 90 be 97 d1 11 3e 3a 18 d5 3e fc 95 98 bf
       -0.2813562 0.14240108 0.41620046 -1.1920772
0000c0 94 4f 7f 3e 7c 77 a3 3f 4e 86 b0 3f a8 cc a1 3d
       0.249327 1.2770839 1.3790987 0.07900363
0000d0 94 84 46 3e d7 29 aa be 09 01 1f bf 02 62 4b 3e
       0.19386512 -0.33235046 -0.62110955 0.19861606
0000e0 74 75 48 3f 9c 30 dd 3e 09 74 57 3f 0c f4 bc be
       0.7830422 0.4320115 0.8416143 -0.36904943
0000f0 a3 74 16 be 1c b7 73 bd 79 93 52 bf d7 c0 55 3f
       -0.14692931 -0.0595008 -0.82256275 0.83497375

l2.bias f4 [8]
000000 b1 49 b0 3e 7f 02 08 3f 48 dc 04 3f 49 aa 12 3f
       0.34431222 0.5312881 0.5189862 0.57291085
000010 7f ec aa 3e 47 e3 fa bc dc e2 9f 3d 8b 8a c3 3e
       0.33383557 -0.030625952 0.07806942 0.38191637

l3.weight f4 [7, 8]
000000 ea 96 43 be 28 55 b5 3e 3d e6 ab bf 5a 55 62 bf
       -0.19100538 0.35416532 -1.3429638 -0.88411486
000010 ce 78 86 bf 5e da 23 bf db 03 e2 3e 78 a7 4b 3f
       -1.0505617 -0.64005077 0.44143566 0.7955241
000020 e5 bc 87 bf 9a c8 a9 bf b4 fe b2 bf 18 44 11 bf
       -1.0604521 -1.3264344 -1.3983979 -0.5674453
000030 08 30 03 3f 92 0e ee 3e fd dd cd 3e 61 f9 12 3f
       0.51245165 0.4649549 0.40208426 0.5741177
000040 aa b2 21 3f 25 df 0a 3f bb 61 b0 3d a8 9f 0b 3f
       0.63163245 0.5424674 0.086123906 0.5454049
000050 c4 3f 5c bf ef 2d a5 bf 20 b2 1c bf 7d 1a b1 bf
       -0.860348 -1.2904643 -0.612093 -1.3836209
000060 b6 94 2d bf 82 2b 9b be 5e c1 2a 3e 0e 99 0d 3f
       -0.6780504 -0.3030663 0.16675326 0.5531167
000070 e4 58 34 3f 69 40 61 bf e8 fe 95 3e 45 65 bd 3b
       0.70448136 -0.8798891 0.2929604 0.0057798945
000080 a0 f4 99 bf bd 26 26 3f b4 37 c7 3e ce f4 cd be
       -1.2027779 0.6490286 0.38909686 -0.40225834
000090 be 61 d7 bd 78 59 8b bf 8b 2b df bf ba 78 45 3e
       -0.1051669 -1.0886679 -1.7435163 0.19284335
0000a0 d8 4b eb 3e 71 61 bb bf 0b 57 a7 bf 6b cb 0d 3f
       0.45956302 -1.4639112 -1.3073438 0.55388516
0000b0 60 6c 06 bc 07 3e e8 3e d2 a5 c5 3e 5e d7 cc be
       -0.00820455 0.45359823 0.38603073 -0.40008062
0000c0 de 9f 2d 3f 9c b4 25 3e f1 22 9e bf 6c 2b 3c bd
       0.6782206 0.16182178 -1.2354413 -0.045939848
0000d0 59 0d ed 3d c5 e7 4a 3f 3d cb a0 bf 47 01 91 bf
       0.115748115 0.792599 -1.2562023 -1.1328515

l3.bias f4 [7]
000000 13 5c 00 3d 83 79 d5 be c3 d0 f3 3d 2c a1 20 3c
       0.03133781 -0.4169427 0.119050525 0.009804051
000010 fd 99 8e be e2 0b 00 bd 64 5d be 3d
       -0.2785186 -0.031261332 0.092951566
