Trabalho/Individual_Chatbot/data.pth (torch, 5482 bytes, 6 tensors)

l1.weight f4 [8, 54]
000000 dc 3d a1 bd 02 59 ef be ee b4 f0 be 1e ca c7 3e
       -0.07873127 -0.46747595 -0.47013038 0.3902139
000010 ba e3 e9 3e 75 84 68 bd 9e e4 bf bd 4e a7 f4 be
       0.45681554 -0.056766946 -0.09369777 -0.47783893
000020 ae 2b e7 be 87 cc 16 bf 2c 7f f1 3e 01 de ec 3e
       -0.45150512 -0.58905834 0.47167337 0.46263126
000030 7a 4c 1e 3f 71 a3 eb 3e a6 5a ac bc b8 74 56 3e
       0.61835444 0.46023133 -0.021039318 0.20942962
000040 9d 72 fd 3e ef 16 c8 bc 65 31 25 3f bb 5e 1c 3f
       0.49501505 -0.024424998 0.64528495 0.6108205
000050 5c d4 1c be e7 ff 4d 3f dd 63 3f 3f ec 49 3d 3f
       -0.15315384 0.804686 0.74761754 0.7394092
000060 41 d0 0e 3e cc 82 95 3e 9d 4a 32 3f 8a 85 84 be
       0.1394663 0.29201353 0.696451 -0.25883132
000070 cb 36 f1 3e 99 32 c0 be 9e d4 c2 bc ab 85 c5 3e
       0.47112116 -0.37538603 -0.023783024 0.38578543
000080 52 a3 6f bd 1e f2 da be 90 f4 c4 bd 24 f5 b5 3e
       -0.058505364 -0.42762846 -0.09616959 0.3553859
000090 c5 25 d4 3e 58 24 fa be 63 a0 16 be b4 5d 0e be
       0.41435066 -0.48855853 -0.1470962 -0.13902932
0000a0 45 fc 9f bd 04 9c 20 3f 20 d0 90 3e 68 0b ca bd
       -0.078117885 0.6273806 0.28283787 -0.09865457
0000b0 d6 cb 16 3e 9a 8b 25 be 0b ac ec be ca 5f 0f be
       0.14726195 -0.16166535 -0.46225008 -0.14001384
0000c0 6f f2 b4 3e d9 4a 4c 3f 91 15 60 3e dc d2 f0 3e
       0.35341212 0.7980171 0.21883227 0.47035873
0000d0 30 92 06 be a8 a4 e4 3d b5 9f 6f be 8d 4b 0c 3d
       -0.13141704 0.11164218 -0.23400767 0.03425174
0000e0 64 f8 21 be d1 1d b0 3e e4 c7 0f 3e 7e 32 27 3f
       -0.1581741 0.34397748 0.14041096 0.6531142
0000f0 28 1a ef bd c3 32 fb bd 4d ac fa be 80 af e1 3a
       -0.11674911 -0.122655414 -0.4895958 0.0017218441
000100 02 f0 d5 3e 7a 92 1b be f2 1a a4 be 6c 07 86 be
       0.41784674 -0.15192595 -0.32051808 -0.26177537
000110 26 fa bb ba f6 62 07 be c2 bb e7 3e d9 35 2d 3f
       -0.0014341518 -0.13221344 0.45260435 0.6766029
000120 ba 07 e5 ba b4 5b 09 3f 9f b4 33 be cc 13 f4 3e
       -0.0017473616 0.5365555 -0.1754937 0.47671354
000130 49 f2 18 3f 6a da c2 3e 23 c9 b6 bd c6 ef b0 3e
       0.597447 0.38057262 -0.089250825 0.34557933
000140 d7 ee 82 be f3 81 a4 3d f0 83 cd be 1b 54 d6 3d
       -0.25572845 0.08032598 -0.40139723 0.104652606
000150 cb 7d 07 3f bc ae a2 be c8 d9 c6 bc 9d 6f 2d be
       0.5292632 -0.31773937 -0.024273768 -0.16937108
000160 37 48 8a bd 3d c6 34 bd 4c be 84 be 0f b0 98 be
       -0.06752055 -0.044134367 -0.25926435 -0.29821822
000170 b6 8f a9 be 8e 4e 0b be be b4 ee 3e 69 64 d2 bd
       -0.33117455 -0.13604185 0.4662227 -0.10273058
000180 d9 94 1c be 9d e2 52 bd c8 c0 fa be c7 7d a5 3c
       -0.15291156 -0.051485647 -0.48975205 0.020201577
000190 27 0c 22 bf 77 4a 94 bd a5 9b 95 3e a3 6e 66 be
       -0.63299793 -0.072407655 0.2922031 -0.22503142
0001a0 6c a1 dd bd f0 7c 68 bd 0c 64 2c be ea 2a 46 be
       -0.108218044 -0.056759775 -0.1683504 -0.19352308
0001b0 b0 3e 29 3f e4 95 da 3e d4 02 9e be ce 12 c4 3e
       0.6611128 0.42692482 -0.30861533 0.38295597
0001c0 22 98 e5 3d a9 b0 f8 3e 97 ac 0d be 5f 0f 0c be
       0.11210658 0.4857228 -0.13835369 -0.13677739
0001d0 f5 20 e6 be 89 92 bd bd 6e 14 b1 3e 08 05 54 be
       -0.4494702 -0.09256465 0.345859 -0.20705044
0001e0 55 1d fa be b8 75 92 be 01 ce 8d 3e bc 1d 0c 3d
       -0.48850504 -0.28605437 0.2769623 0.034208044
0001f0 0e c2 bf 3e 02 6c 06 3f c9 bc 04 be 54 c3 be 3e
       0.3745274 0.52508557 -0.12962641 0.372584
000200 44 93 01 3f d9 76 06 3f 1c b2 c3 3e 50 86 9e 3e
       0.50615335 0.525251 0.38221824 0.30961847
000210 13 73 60 be fe 99 aa 3e ed 77 bc be d6 94 a6 3e
       -0.21918897 0.33320612 -0.36810246 0.32535428
000220 2f 0f 8c be 22 9e 93 3e 6e 1f 61 3e 90 35 58 be
       -0.27355334 0.28831583 0.21984646 -0.21114182
000230 4e e9 02 3f 01 0d 87 be cf 0e 6e 3e 00 41 27 3c
       0.51137245 -0.2637711 0.23247837 0.010208368
000240 54 47 c5 bd 3b 61 04 bf 3c f9 52 be 8c 52 13 be
       -0.096327454 -0.5171086 -0.20602888 -0.14386958
000250 cb 5d d2 3e 76 0d 9e be 7b 65 83 be 8f 05 9b 3e
       0.41087183 -0.30869645 -0.2566336 0.30277678
000260 57 09 c9 be 51 f5 43 3e 2e d0 81 3f 78 05 04 3f
       -0.39264938 0.1913655 1.0141656 0.51570845
000270 e8 15 9c 3d 2e 9b a0 be a2 05 bf bd d0 67 fe bd
       0.07621366 -0.31368393 -0.09327246 -0.124221444
000280 52 c7 1f be cc f6 7c 3e ad db e6 bd 3a 55 98 be
       -0.15603378 0.2470352 -0.112723686 -0.29752523
000290 6c ee ad 3e 52 60 ca 3e 68 e1 20 3f 8d cc 99 3d
       0.33970964 0.39526612 0.6284394 0.07509718
0002a0 aa 31 ea 3e 10 eb df 3e 17 d2 96 3e 41 8d 8b 3e
       0.45741016 0.43734026 0.2945716 0.27256206
0002b0 b8 12 f9 3e e0 16 b6 be e1 68 9d 3e db 8e 3c be
       0.48647094 -0.35564327 0.3074408 -0.1841387
0002c0 aa b6 1f be 59 d3 94 be 68 4c d5 3e 24 95 f2 3c
       -0.15597025 -0.29067495 0.41659856 0.029612131
0002d0 c7 3d 05 3e c2 83 f9 3e c9 57 35 be b3 ee 0c 3f
       0.13011847 0.48733336 -0.17709269 0.55051726
0002e0 a0 d1 17 3f 09 88 17 3e a1 e3 76 3e 99 f0 b7 3e
       0.5930424 0.14797987 0.24110271 0.3592575
0002f0 44 f3 3b 3e 5e 94 d9 be 9d e1 24 3d 4b 9e d9 be
       0.18354517 -0.42496008 0.040254224 -0.4250358
000300 e3 cd 4a 3d 0e d3 28 be 2e 90 52 38 37 fd 9e 3e
       0.049512755 -0.16486761 5.020218e-05 0.31052563
000310 05 12 15 be bf 5b 2a be 96 21 98 3d 68 40 d9 3e
       -0.14557655 -0.16636561 0.07428281 0.4243195
000320 73 cf 87 3e bf 2a 9f 3e 06 b8 d8 bc fe 70 fb bc
       0.2652546 0.310873 -0.026454937 -0.030693527
000330 3f 66 a4 be 40 d3 88 be ce 0c 16 3e 64 0c a9 bd
       -0.32109258 -0.2672367 0.14653322 -0.082543164
000340 f0 e4 19 bf 39 66 ae be 97 a6 e6 3e c5 ae 08 3e
       -0.60114956 -0.34062365 0.45048973 0.1334792
000350 53 08 00 be fb 7e d5 3d b7 cb af 3e de 6c a9 3e
       -0.12503175 0.1042461 0.3433511 0.33090872
000360 7b e4 04 3d 1c 5a 12 3f a8 fd 7e be 1c 1d 51 3e
       0.03244446 0.57168746 -0.2490145 0.2042126
000370 8f 84 42 3e 21 89 d1 be b2 18 ff bd 3a ca b6 be
       0.1899588 -0.40924934 -0.12455882 -0.35701162
000380 2a e9 6f be ae 59 b6 be cb ab ca 3e 13 8f 27 3f
       -0.23428789 -0.35615295 0.39584193 0.6545269
000390 90 1e 34 3e 41 4f 32 3f 04 d7 05 3f 8b c7 d2 3e
       0.17589784 0.6965218 0.5228121 0.41167864
0003a0 9f c2 d6 3e 5a 74 d1 be 55 67 58 3e b7 94 24 3f
       0.4194536 -0.40909082 0.21133168 0.6428942
0003b0 e9 75 27 3e 6f cb f7 3e 4c 61 0d 3f 8d 25 24 3f
       0.16353573 0.48397395 0.5522659 0.641198
0003c0 f5 0a 91 3e 81 dc 94 3e 92 46 e9 bc 9b 15 2d 3f
       0.28328672 0.2907448 -0.028476033 0.6761109
0003d0 19 2b da 3d ac 2c ed 3e 73 ab 36 be f0 44 07 3f
       0.106527515 0.46323144 -0.1783884 0.52839565
0003e0 37 46 96 bd 89 6a 91 be ac f8 26 3f 8d 2d 02 3f
       -0.07337611 -0.28401592 0.65223193 0.50850755
0003f0 c4 50 b9 3d ce 16 a0 be 4d 81 00 be 71 ee b1 be
       0.09048608 -0.312674 -0.12549324 -0.3475223

l1.bias f4 [8]
000000 46 59 be 3e 4b 6b 57 3f 51 0c 5d 3f 9e c6 26 3f
       0.37177485 0.8414809 0.8634692 0.65146816
000010 88 88 d1 3e 57 df d4 3e 48 59 21 3f 5c 71 db 3e
       0.40924478 0.41576645 0.6302686 0.42859924

l2.weight f4 [8, 8]
000000 5a ff dc 3e e1 c0 37 bf b7 8d 76 bf 0d 01 52 3f
       0.43163568 -0.71778685 -0.9630999 0.82032853
000010 d6 6b f6 be a3 3c 4c 3f 47 61 14 bf 62 e2 33 be
       -0.48129147 0.79780024 -0.57960933 -0.17566827
000020 9f bb 3e bf 9b 39 0e 3e fa a7 9e bc 9b 4b 2d 3f
       -0.7450504 0.13889162 -0.019367207 0.6769349
000030 2e 5a 6a 3f 64 e8 90 3f c5 a4 32 bf 50 6d bd 3f
       0.91543853 1.132092 -0.6978267 1.4798985
000040 c0 b9 1a bf 8d 5f 24 3f 64 87 8d 3f 15 4a 74 3f
       -0.6043968 0.642083 1.1056943 0.9542554
000050 28 85 38 bf 5e 72 85 3e 2d 45 fb 3e 00 23 a9 3d
       -0.7207818 0.26063818 0.49076214 0.08258629
000060 80 d1 9e 3f fc 63 d5 be 93 39 cc be 8a d5 52 3f
       1.2407684 -0.41677845 -0.39887676 0.82357085
000070 76 af c7 3f 01 4b c7 3e f4 cd c1 be 9b e5 3d 3f
       1.5600421 0.3892441 -0.37852442 0.74178475
000080 84 a2 9e be 73 fc e3 3e f8 f0 bd 3f 86 71 c9 be
       -0.30983365 0.4452854 1.4839163 -0.39344424
000090 44 0c 99 3f ce 6c 0b 3f 96 e6 a7 3f b5 7f 7c 3f
       1.1956868 0.544629 1.3117244 0.98632365
0000a0 8e d0 93 3e a6 08 91 3f 71 f2 9d 3e 28 b2 47 3f
       0.28870052 1.1330764 0.3084903 0.7800622
0000b0 88 26 c0 3d 99 c3 52 3f 0e f5 7a bf 2a 68 4b 3f
       0.09382349 0.8232971 -0.98030174 0.79455817
0000c0 b9 71 22 3f f5 23 a8 3f a3 a9 45 3e 82 ff 7f 3f
       0.63454777 1.3135973 0.19302993 0.9999925
0000d0 50 8d da bc 08 04 ed bd cf bc 05 bf 6f 75 92 bd
       -0.026678711 -0.115730345 -0.52241224 -0.07151305
0000e0 21 ab 05 bf 54 0b d5 be 8b dc e4 be 9a 3e 36 3f
       -0.52214247 -0.41610205 -0.4469951 0.7118927
0000f0 ad 4a f1 be 3f 64 2f 3f da 96 5d be 00 10 ad 3e
       -0.47127286 0.6851234 -0.21639577 0.3380127

l2.bias f4 [8]
000000 27 67 28 3f 20 3c 4b 3c fe 18 2a 3f bd 51 e3 3e
       0.657824 0.012404472 0.66444385 0.443983
000010 f3 6c d1 3e b4 01 af 3c 2e 3c 72 3e 6c 44 d2 3e
       0.40903434 0.021363117 0.23655769 0.41067827

l3.weight f4 [7, 8]
000000 c8 41 e1 be 0c 2d 65 be 7d f2 81 bf b9 8e 61 3f
       -0.439955 -0.22380465 -1.0152127 0.881084
000010 ef 30 f7 3d 7d 4b 96 bf c4 f4 54 bf 6a f7 33 be
       0.1206988 -1.1741787 -0.8318598 -0.1757485
000020 19 cf df be a5 91 05 3f 11 4e 00 bf d1 a8 44 be
       -0.4371269 0.5217536 -0.5011912 -0.19205023
000030 44 79 c5 3e 4d a4 21 3e ea 4d ec bf e6 8d 30 3d
       0.3856908 0.15785332 -1.8461277 0.043104075
000040 3f 75 4e be d7 52 d3 bf b3 c3 30 3f 5d 0e aa bf
       -0.20161913 -1.6509656 0.69048613 -1.3285633
000050 e5 ec 95 3c 86 8e ab 3e 4c 57 c9 3e 1e c1 c1 be
       0.018301437 0.33507174 0.39324415 -0.3784265
000060 73 a7 48 bf 15 4e b5 3e 49 67 1d be be ba d3 3d
       -0.7838051 0.35411134 -0.15371431 0.103383526
000070 1a e0 ed be c9 8a 20 3f 26 73 74 3e f6 7b 01 bf
       -0.46460038 0.6271177 0.2387205 -0.50579774
000080 66 74 1d 3f 91 b7 60 bf fe 27 44 bf 47 f1 18 3f
       0.61505735 -0.877801 -0.76623523 0.5974316
000090 9b 28 a3 bf 16 28 ef 3d dc 3a 0f 3f cc 3c a8 be
       -1.2746767 0.11677568 0.5594919 -0.32858884
0000a0 ea 85 44 3f 95 ec 20 3f 42 03 8f 3e b9 90 4a bd
       0.76766837 0.62860996 0.27932173 -0.049454425
0000b0 b5 bf 87 bf 3f 51 58 3d 37 4b 44 bf ed ae 70 3f
       -1.0605379 0.052811857 -0.7667727 0.94016916
0000c0 a2 7b cc 3a 1f c4 4a bf 76 9b 21 3f cb db 48 bf
       0.001560081 -0.7920551 0.6312784 -0.7846038
0000d0 79 a4 72 3f bd cf c1 bf c4 52 f3 bf 15 ea 88 bd
       0.94782215 -1.5141522 -1.9009633 -0.066852726

l3.bias f4 [7]
000000 c1 68 cd 3e bb 98 03 be b5 f4 2f 3f 7a 0c 88 be
       0.40118983 -0.12851231 0.6873277 -0.2657202
000010 33 4a 88 3e d9 a5 56 be d7 35 c2 3d
       0.2661911 -0.20961703 0.094829254
