Trabalho/Individual_Chatbot/data.pth (torch, 9962 bytes, 6 tensors)

l1.weight f4 [8, 130]
000000 6c fa f0 3e 88 fe e5 3f 69 45 6b 3f 55 d7 04 40
       0.47066057 1.7968302 0.91902786 2.0756428
000010 23 3f e9 40 f2 c0 76 40 a6 ee 1f 40 ce b6 14 3f
       7.288957 3.8555264 2.498941 0.5809144
000020 24 ad 40 40 4a f2 a5 40 4f d4 2e 3f 0e 97 ad 3f
       3.0105677 5.1858263 0.6829271 1.3561723
000030 e4 a8 6f 40 47 2f 8e 40 b9 06 3c 40 8e 18 81 bc
       3.7446833 4.443271 2.9379103 -0.015758779
000040 1a ce 13 3e f3 52 5e 40 f2 3d 57 bd 27 92 1c 3f
       0.1443409 3.4738128 -0.05254931 0.6116051
000050 01 b2 a6 40 51 32 70 3f 3f a6 6d 40 c1 6e cf 3f
       5.209229 0.93826777 3.7132719 1.6205674
000060 7f 6f a0 3c 14 ed 59 3f c8 99 96 40 46 1c a0 3e
       0.019584415 0.8512738 4.706272 0.3127157
000070 68 79 06 3f 7e f1 4a 40 a3 fc 85 3f 79 e6 36 40
       0.52529 3.1709895 1.0467724 2.857817
000080 a1 51 94 3f a3 a6 77 3f df 8f 52 40 92 cd 05 3f
       1.1587411 0.9673864 3.2900312 0.522668
000090 80 11 5f 40 da 4f 71 40 e3 f3 bf 3f 45 08 f6 bd
       3.485443 3.7704988 1.4996303 -0.12013296
0000a0 41 25 70 40 34 60 65 40 9e 83 51 40 80 6a 24 3f
       3.7522738 3.5839968 3.2736583 0.64225006
0000b0 14 37 2b 40 9d dd 74 3f f6 da bf 3f 8e 85 0a 40
       2.6752367 0.95650655 1.4988697 2.1644015
0000c0 5d 0d cb 3f 19 fd b2 3e 71 b7 20 40 a5 53 b7 40
       1.5863453 0.34958723 2.5111964 5.7289605
0000d0 39 04 9f 3f 36 c3 6d 40 1a 86 ee 3e 1b dc d2 3f
       1.2423164 3.7150397 0.46586686 1.6473421
0000e0 c5 ce 17 40 40 f0 1d bf 6f f7 18 40 23 0f b1 40
       2.3719952 -0.6169472 2.3901021 5.5330977
0000f0 3c f8 46 40 fd ab 97 3f b1 57 df 3f c7 47 e3 3e
       3.108901 1.1849362 1.7448636 0.443907
000100 ba 4b 70 40 5c c8 95 3f 3d ac 85 3f bd 9a 30 3f
       3.754622 1.170177 1.0443188 0.6898611
000110 64 f4 bc 3f 1d a9 3a 40 08 f7 81 40 1f bf 65 40
       1.4762082 2.9165719 4.061405 3.58979
000120 3f 80 2b 40 07 c3 b7 40 f3 20 b7 be ff 2f 64 40
       2.6797025 5.742557 -0.35767326 3.5654294
000130 b3 da f7 3d c2 7e e2 40 11 47 ca 40 b5 08 0c 41
       0.121022604 7.0779734 6.321175 8.752126
000140 4c d3 5a 3f c6 52 55 3f b0 c8 8e 3f 95 0d 74 3f
       0.85478663 0.8332943 1.1154995 0.95333225
000150 c6 2f 35 40 07 c6 95 3f 2d 23 20 40 8b d7 90 3f
       2.8310409 1.1701058 2.502147 1.1315778
000160 84 4d 32 40 39 ad 48 40 19 af 35 40 6b 79 d0 3f
       2.7859812 3.1355727 2.838812 1.6287054
000170 24 6e 28 3f ee 78 5f 3f c4 6b 19 40 ec 36 94 3f
       0.6579306 0.872939 2.3972025 1.1579261
000180 71 ed 51 40 86 65 3f 3f 88 d9 8e 3f 13 f2 33 40
       3.2801173 0.7476429 1.1160135 2.81165
000190 16 de 08 40 4c 42 6b 40 74 68 5c 40 5c 4c 05 40
       2.138555 3.6759214 3.4438753 2.0827856
0001a0 cd f8 63 40 e5 1b f4 3f b7 3a 4e 40 96 ed 67 40
       3.5620606 1.9071013 3.2223337 3.623876
0001b0 ad 14 bc 40 8c ff b7 3f 3a 17 b8 3f a9 f7 8e 40
       5.877524 1.4374862 1.4382088 4.467732
0001c0 8c a3 b9 40 42 75 74 40 af f3 59 40 80 9e 4e 40
       5.801214 3.8196568 3.4054983 3.228424
0001d0 21 3c 9e 3f 3d bc 79 40 c6 79 52 40 d9 47 df 3e
       1.23621 3.9021142 3.2886825 0.43609503
0001e0 44 4a 52 40 e9 c4 d5 3f 01 c2 66 40 c0 c5 14 3f
       3.2857828 1.6700717 3.605591 0.5811424
0001f0 a7 d6 8c 3f 84 f3 2a 40 59 d5 03 40 8c e8 aa 40
       1.1003007 2.671113 2.0598967 5.340887
000200 5f 9c 86 3f ab d4 ae 40 46 49 09 3f 9f 64 3d be
       1.0516471 5.4634604 0.5362743 -0.18495415
000210 f3 9f 83 3f ca 75 5b 40 ec 23 bb 40 a7 ae 0a 40
       1.0283188 3.4290643 5.848135 2.16691
000220 d7 92 c2 3f 82 88 97 3f 40 e4 ae 3f f6 05 bc 40
       1.5201062 1.1838534 1.3663406 5.8757277
000230 b6 b6 04 40 87 10 5d 40 7d c1 60 40 be 24 50 40
       2.0736518 3.4541337 3.5118096 3.2522426
000240 88 c3 b0 3f c2 87 66 3e d2 93 1e 40 81 7f f5 3f
       1.3809671 0.22512725 2.4777722 1.9179536
000250 f0 60 6b 3e 0f 8e 9e bb d8 3f bc 40 51 35 f7 3f
       0.22986197 -0.004838712 5.8827934 1.9313146
000260 64 ba 40 40 c5 db 83 bd 0a d1 17 40 2c 25 a0 3f
       3.0113764 -0.06438402 2.3721337 1.2511344
000270 2d 62 60 40 ad 04 ae 3e 4d 97 90 3f 19 f3 52 3f
       3.5059922 0.33987942 1.1296173 0.8240219
000280 67 7d ea 3f 51 cb a9 3f ec 54 2c 3f 83 fc 06 3f
       1.831952 1.3265172 0.6731708 0.5272905
000290 4f 34 83 3f 58 30 00 3f 10 9a ed 3f 79 0a 0a 40
       1.0250338 0.50073767 1.8562641 2.1568892
0002a0 b1 be 1d 40 09 ac 53 3f c0 cf 0b 40 d5 ab 16 40
       2.4647639 0.8268438 2.184555 2.3542378
0002b0 b7 02 9d 3f 1c 38 14 3f 4f 33 f9 3f d3 8f ac 3f
       1.2266454 0.57898116 1.9468783 1.3481392
0002c0 3b 9c 3b 40 52 50 ad 3e 54 d5 11 3f 34 0b 9c 3e
       2.9314106 0.33850342 0.5696614 0.30477297
0002d0 04 44 a7 3f 78 90 95 40 a6 ef 63 40 27 f6 41 40
       1.3067632 4.6738853 3.561502 3.030649
0002e0 8a 64 95 3f bb 9d f4 3e c3 a8 86 40 c8 ed 33 bf
       1.1671307 0.4777659 4.208101 -0.702847
0002f0 bc 70 bf 3f 6e 0f 5a 40 82 39 30 40 d2 9b 07 40
       1.4956279 3.4071918 2.75351 2.1188855
000300 0e 40 28 40 ac fd a0 3f d3 e6 41 40 6a 43 2e 3f
       2.6289096 1.2577415 3.0297134 0.68071616
000310 55 5a d9 3f cc 5b 10 3f c3 2b ba 3f 1d 99 db 3f
       1.6980692 0.5639007 1.4544605 1.7156101
000320 50 55 3d 40 16 87 0a 40 f5 ab d2 3f 10 2a 94 40
       2.958332 2.164495 1.6458727 4.6301346
000330 85 52 53 3f bb 4a 04 40 b4 a7 9f 3f fd d6 a9 40
       0.8254779 2.0670612 1.2473054 5.3074937
000340 3b b0 92 40 45 0b d6 40 d5 6d 87 3f 97 15 aa 3f
       4.5840125 6.6888757 1.0580393 1.3287839
000350 1f 8d 34 40 f6 b4 aa 3f 35 c3 01 40 30 47 31 40
       2.8211133 1.3336475 2.0275395 2.76997
000360 9d ce 75 3f 30 9a 14 3f 42 c6 51 40 41 09 87 3f
       0.9601839 0.5804777 3.2777257 1.0549699
000370 03 6d fe 3f c8 94 25 40 ab 1a 91 3f a6 d8 7c 3f
       1.9877018 2.587206 1.1336263 0.9876808
000380 4a bc e1 3f a9 b5 82 3f bf 34 83 3f df 99 92 3e
       1.7635586 1.0211688 1.0250472 0.2863302
000390 dd 26 d9 3f 4c 94 d7 3f 21 62 23 40 6f ca 9a 40
       1.6964985 1.6842132 2.5528643 4.837211
0003a0 e9 3b 0b 40 e1 b3 22 40 43 30 08 40 6d 88 42 40
       2.1755316 2.542229 2.1279457 3.0395768
0003b0 73 5e 4b 40 07 46 97 40 a5 84 65 40 c1 31 03 40
       3.1776397 4.7272983 3.586221 2.0499117
0003c0 b6 89 1c 40 6e 26 50 40 04 ea 98 40 9b 5d 36 40
       2.4459052 3.2523456 4.7785664 2.8494632
0003d0 48 de 20 40 1a 1c 83 3f c3 18 09 40 02 cc 49 40
       2.513567 1.0242951 2.1421363 3.1530766
0003e0 e1 92 53 40 6c 24 04 3f d6 03 7f 3f e2 e5 34 be
       3.3058398 0.51618075 0.9961523 -0.17665818
0003f0 39 2e 6f 40 57 3b 8c 3f 09 11 03 40 50 7d e8 3f
       3.7371962 1.0955609 2.0479147 1.8163242

l1.bias f4 [8]
000000 b1 0b 1a 40 29 71 08 40 c9 5f f9 3f 0e 2a 08 40
       2.4069636 2.1319067 1.9482356 2.1275668
000010 76 11 35 40 2a c7 2a 40 2b 70 0f 40 ce af 10 40
       2.8291907 2.668406 2.2412212 2.2607303

l2.weight f4 [8, 8]
000000 b4 63 97 bd ae 7a df 3f 52 8b 46 40 e4 c5 c1 3f
       -0.07392064 1.7459314 3.1022534 1.5138516
000010 1a 74 53 40 63 f5 41 40 10 dd 97 3f ad ad 55 3e
       3.3039613 3.0306022 1.1864338 0.20867033
000020 88 c0 2f be 0d 8d 00 40 60 c9 a6 3c 09 87 ae 3e
       -0.17163289 2.008609 0.020359695 0.340874
000030 82 b6 27 3f 80 b5 32 3e c3 c1 03 40 d3 41 d5 3f
       0.6551286 0.1745205 2.0587013 1.6660713
000040 41 ac d1 3f 80 cd 24 40 e8 7c f2 3f 7b d6 fa 3f
       1.6380693 2.5750427 1.8944368 1.9596704
000050 fa f7 86 bf d3 32 7b 3f 62 16 ce 3f c1 86 8f 3f
       -1.0544426 0.98124427 1.6100581 1.1212999
000060 d9 fc 42 40 aa 80 05 40 f8 4d 76 bf 41 c8 2a 40
       3.0466826 2.085978 -0.9621272 2.6684725
000070 7d bb 03 40 f7 b8 2f 40 82 a0 6c 3e 63 5d 95 3f
       2.0583184 2.7456644 0.23108104 1.1669124
000080 9c f2 54 40 cc 11 42 3f 84 0f cd 3f dd ea 5a 3e
       3.3273077 0.75808406 1.602036 0.21378656
000090 ea 08 a4 3f 73 61 9b 3f 92 43 09 40 59 76 43 40
       1.281522 1.2139114 2.1447492 3.0540984
0000a0 2e 05 9c 3e fe 88 9f 3e b4 ee 6c 3f 22 c3 20 40
       0.30472702 0.31159204 0.9255173 2.51191
0000b0 c4 1d fc 3f 3f 13 69 3e a0 db 2a 40 d4 3f 09 40
       1.9696584 0.22761248 2.6696548 2.1445208
0000c0 3e 32 3f 3f 74 99 3b bf 0a d1 dc 3f 01 ff 04 40
       0.7468604 -0.73281026 1.7251294 2.0780642
0000d0 fa 55 9a bd ca a4 1a 3f ef ed 94 3f 69 e4 26 40
       -0.0753593 0.604077 1.1635112 2.607691
0000e0 b1 f4 0d 40 69 8e 87 3e bf da 7e 3f 6f 27 81 bf
       2.2180598 0.26475838 0.9955253 -1.0090159
0000f0 0b 72 4d 3f 8d 67 34 3e fd 88 03 40 0c 74 82 be
       0.8025214 0.17617626 2.055236 -0.25479162

l2.bias f4 [8]
000000 f8 f4 6c 3f 3d 92 3e 3f 2d c2 ed 3e 6d 38 9b 3f
       0.9256129 0.7444189 0.46437207 1.2126595
000010 37 be 9c 3f 98 d9 38 3f 16 d3 0a 3f a6 a8 2f 3f
       1.2245549 0.7220702 0.5422834 0.6861671

l3.weight f4 [24, 8]
000000 d9 81 48 c0 5a 88 7d 3b 38 4a 86 be 22 ec c6 bf
       -3.1329253 0.0038686008 -0.262285 -1.5540812
000010 3d a0 09 3f 90 63 e4 bf 10 01 a2 bf bc ee 07 3f
       0.5376013 -1.7842884 -1.2656574 0.53098655
000020 72 9a 08 3f d7 78 13 3d 06 8e 1b be be 77 8e bf
       0.53360665 0.036003914 -0.15190896 -1.1130292
000030 a6 a7 48 c0 b7 6d f8 bf 90 33 d1 bf 72 ac 91 3d
       -3.1352324 -1.9408482 -1.6343861 0.071129695
000040 80 db 31 c0 42 68 df bf 95 55 ce be 0e 5a 1a bf
       -2.7790222 -1.7453692 -0.4029967 -0.6029366
000050 28 21 a2 bf f8 5d 23 be 70 32 fd 3e 12 2d d3 bf
       -1.2666368 -0.15953815 0.49452543 -1.6498129
000060 bc ff 5a c0 d3 f3 0b 3f 5e c0 b2 bd cc 91 fd be
       -3.4218588 0.5466892 -0.087280974 -0.49525297
000070 d9 83 08 c0 60 36 80 3e fe 70 11 3d 41 86 f4 bf
       -2.1330473 0.25041485 0.03550815 -1.9103471
000080 c3 c1 4f bf 47 13 99 be 8e 64 2b c0 45 02 12 bf
       -0.8115503 -0.2989752 -2.6780124 -0.57034713
000090 66 a7 af bf 60 66 df be e1 da e0 bf b8 f3 32 3e
       -1.3722961 -0.43632793 -1.7566797 0.17475784
0000a0 77 dd 1e 3d 57 ad 0e c0 e8 0b 00 c0 58 c6 1d c0
       0.038785424 -2.2293298 -2.0007267 -2.465231
0000b0 8e 46 1b 3f b7 cd 33 c0 d2 79 59 3e 41 14 da 3e
       0.6065453 -2.8094308 0.21237877 0.42593578
0000c0 7c ca 32 c0 d5 22 83 bf c3 3e 8c bf 0f 13 02 c0
       -2.7936087 -1.0245005 -1.0956653 -2.0324132
0000d0 84 be 2e bf 53 39 de 3e 24 8f 30 3e 58 29 9a 3d
       -0.68259454 0.4340311 0.17242104 0.07527417
0000e0 e5 8c a9 be 39 e4 22 c0 ff 90 01 bf 70 4c ee bf
       -0.33115306 -2.5451796 -0.5061187 -1.8617077
0000f0 69 74 c1 bf 90 0b 81 bf d1 74 ab be ee f6 b9 3e
       -1.511365 -1.0081654 -0.3348756 0.36321205
000100 00 41 44 3f cc e3 68 3d 60 3e ac 3d 67 4d 32 3f
       0.7666168 0.05685787 0.084103346 0.69649357
000110 48 1e 79 c0 cc bd 29 c0 e0 1d 27 c0 e7 90 d9 bf
       -3.8924732 -2.6522093 -2.6111984 -1.6997346
000120 c7 82 93 be df f1 a4 3d 20 3d 72 3e a9 72 2a 3f
       -0.28810713 0.08053946 0.2365613 0.6658121
000130 e2 b3 af c0 e4 d3 28 bf 7a 8c 02 bf 53 01 f7 bf
       -5.4907084 -0.6594832 -0.509956 -1.9297279
000140 2e 9a 22 bf 70 ff e6 be 43 97 88 bf e0 47 56 c0
       -0.6351651 -0.45116758 -1.0671161 -3.348137
000150 15 1c 57 bf 71 ef 36 bf 43 6d ef 3e a3 5d 94 be
       -0.84027225 -0.7145911 0.46763048 -0.2897769
000160 fb e9 88 3d f2 84 80 bf 8f 16 27 bf 04 ec 90 bf
       0.06685253 -1.0040572 -0.65268797 -1.1322026
000170 af 8d 38 c0 8a a3 92 bf ff 74 cf 3e b2 77 e5 bf
       -2.8836477 -1.1456158 0.40518948 -1.7927153
000180 05 84 54 3f 22 4e 15 c0 b8 cb 2b c0 01 60 0f bf
       0.83013946 -2.3328938 -2.684309 -0.56005865
000190 ab 1b 53 c0 e0 14 c0 3d f9 3c 06 bf 42 eb 26 3d
       -3.2985637 0.093789816 -0.52436787 0.040751703
0001a0 6a 14 fc bf fb 27 d9 3e 87 42 f8 3e 80 77 4e bc
       -1.969373 0.42413315 0.48488256 -0.012601733
0001b0 8c 4f 33 bf 7a f2 6b c0 6a e1 fe bf d2 43 97 bc
       -0.70043254 -3.6866746 -1.9912541 -0.018464956
0001c0 83 0d 26 bf 42 4f 56 3c 06 5b 84 3e dc f8 db bf
       -0.6486437 0.01308042 0.25850695 -1.7185321
0001d0 ce 6d 89 be 1c f5 4d c0 61 02 22 c0 80 ad fc 3e
       -0.26841587 -3.2180853 -2.5313952 0.4935112
0001e0 25 53 ab 3e 5a 43 3c c0 98 26 b9 bf ae 8a 62 3f
       0.33461872 -2.9416108 -1.4464903 0.8849286
0001f0 e4 ca 1d c0 7f d2 1f c0 77 30 18 bf a0 e5 15 bf
       -2.4655085 -2.4972227 -0.5944895 -0.58553505
000200 81 bd 8d 3e 4c 31 11 3e 2f ec 1a c0 a0 60 49 c0
       0.27683643 0.14178962 -2.4206655 -3.1465225
000210 db 73 bc bf 6b 52 7d 3e c2 ff 95 bf 34 59 2f 3f
       -1.4722856 0.24738471 -1.1718676 0.6849549
000220 ef ae 06 c0 d2 43 1f bf d8 4b 52 3e ab 2c 36 3f
       -2.104427 -0.6221286 0.20536745 0.7116191
000230 d9 6a 17 c0 9c 46 fe bf 8e 85 ac be 79 17 bc bf
       -2.3658965 -1.9865298 -0.33695644 -1.4694663
000240 61 32 b2 bf 0c 0f 3f bf 16 33 6e bf b6 58 56 bf
       -1.3921624 -0.74632335 -0.930467 -0.8372911
000250 0d 89 47 c0 a7 f7 46 3f c6 d1 a3 3e 33 84 dc bf
       -3.11774 0.7772164 0.31995982 -1.7227844
000260 40 a5 cf be 64 c4 0e bf fd 85 0b be 74 4e ee 3e
       -0.40555763 -0.5576842 -0.13625331 0.4654423
000270 a5 69 e5 bf df bc 48 c0 27 05 45 c0 d0 9c 24 3e
       -1.7922865 -3.1365278 -3.0784395 0.16075444
000280 db 95 22 bf 41 79 24 c0 d3 26 15 c0 8b 8d 05 3f
       -0.6350991 -2.5699008 -2.3304946 0.521691
000290 bf a9 25 3f d9 3b 61 c0 bf c2 1c c0 8c ca 67 3f
       0.64712137 -3.5192778 -2.4493864 0.90543437
0002a0 d6 c2 90 bf 54 36 40 3f 78 14 38 bc e3 9e de bf
       -1.1309459 0.750829 -0.011235349 -1.7392238
0002b0 55 00 f6 bf db e2 b0 bf 72 15 56 bf 42 f7 c5 be
       -1.9218851 -1.3819231 -0.8362647 -0.38665205
0002c0 66 f7 ce bf a5 43 55 3e a5 65 2d 3f 78 4b 38 bf
       -1.616925 0.20826586 0.6773322 -0.71990156
0002d0 03 4b 5f c0 09 bd 5b be bd b1 d1 bc 01 8c 25 c0
       -3.4889534 -0.2145883 -0.025597448 -2.5866702
0002e0 66 fc 37 c0 2e e8 0d bf 00 ee 0e 3f 35 ef 1a c0
       -2.8747802 -0.55432403 0.5583191 -2.42085
0002f0 dd 64 6e bf 80 60 0a bf 9b 4b b6 3e a4 6e 42 be
       -0.93122655 -0.540535 0.35604557 -0.18987519

l3.bias f4 [24]
000000 f6 42 38 bd 84 8b 0c bf 98 38 e4 3d 4f dd 05 be
       -0.044985734 -0.54900384 0.11143607 -0.13072704
000010 23 c5 e2 3e c7 87 96 3e a4 dd 66 be bc d3 2d bf
       0.44291028 0.29400465 -0.22545487 -0.67901206
000020 da 82 5b 3c f5 11 b3 3d 48 6e 4b 3b a6 f0 ff 3d
       0.013397897 0.087436594 0.0031041075 0.12497072
000030 e2 30 81 be 0a 42 8b be 1e 2d a1 bd 94 9f af 3e
       -0.25232607 -0.2719882 -0.078699335 0.34301436
000040 9a 7e 80 bd c5 60 78 3e 8c 72 50 3e 13 c2 7c be
       -0.06274147 0.24255665 0.20356196 -0.24683408
000050 dc 56 d2 3e 14 dc 88 3e 62 0a 2b be f4 5d 80 be
       0.41081893 0.26730406 -0.1670318 -0.2507168
