Trabalho/Individual_Chatbot/data.pth (torch, 9962 bytes, 6 tensors)

l1.weight f4 [8, 130]
-0.02102096 -0.04731614 0.21771736 0.3713478 -0.034056943 -0.1328366 0.25458542 0.19276665
0.41887394 -0.3568424 -0.10030629 0.47506723 0.2692281 0.0013409059 0.35007 -0.21041374
0.37532485 0.36679828 -0.20032777 0.0036063865 -0.31594726 0.3051287 -0.121574156 0.29271275
0.3742928 -0.043102644 0.24085459 -0.10383092 0.16447005 0.01568602 0.24293444 0.46861854
0.47876015 0.06938349 0.46603054 -0.031064626 0.24730209 -0.06899372 0.17531918 0.24703792
-0.05543643 0.4710321 0.40220013 0.30833012 0.2224659 -0.09254854 0.07242498 -0.18517202
0.24752958 0.36462316 0.33688918 -0.036286175 0.4184136 -0.19449061 -0.15723771 0.19846429
-0.10809417 -0.43577537 0.36380595 -0.09403236 -0.30178043 0.21074761 0.10365617 0.1508464
-0.29728 0.4575208 0.2545318 0.25270236 0.18239515 0.37165618 -0.014163438 0.36210376
0.32939485 -0.04975339 0.084257506 0.102941565 0.2284771 -0.31760082 0.44529644 0.3661648
0.5162302 -0.0829202 -0.2713828 -0.08575525 0.28776225 -0.23526226 -0.30601147 0.29391986
-0.24283615 0.45606554 0.25632635 0.22406578 -0.063005626 0.15478046 0.48597306 -0.14820932
0.37052366 -0.22466357 0.25506133 0.38435847 -0.31225383 -0.23574604 0.3902498 -0.20916468
-0.03254637 0.11710092 -0.09041127 -0.26392478 0.29963234 0.44702804 0.27973104 0.036495473
-0.068771034 -0.19568057 0.13622867 0.48093477 0.27093887 -0.0008638244 -0.15113227 -0.007815126
0.16864155 0.20628227 -0.24323988 0.2816741 0.34482452 0.47734728 -0.07765617 0.2850467
-0.08153256 -0.14247286 0.3682137 -0.22392946 -0.05077706 -0.31658277 0.30008262 0.2578451
-0.15731442 0.16589485 0.28239053 0.3364735 0.27509952 -0.4413475 0.21948434 0.15141934
0.40549067 0.4097655 -0.33995542 0.3882476 0.41499066 -0.38446862 0.3363724 -0.10953351
0.44915313 -0.24162202 -0.23780158 -0.3230706 0.503656 -0.096339 0.077358 -0.0058934772
-0.10804439 -0.40738675 0.03676957 -0.032396972 0.16782321 0.420801 0.38321844 0.15981433
-0.30904198 0.1962262 0.11551507 0.25534463 0.18274777 0.34913588 0.34134886 0.19833459
0.099396974 -0.08656302 -0.3164613 0.28512353 0.2180754 0.38223127 -0.4605038 -0.47571987
0.05591404 -0.2288347 -0.03676323 0.52212304 -0.3070968 0.37250963 0.1037602 0.40277225
0.42367446 0.16549645 -0.3349321 0.0755504 -0.2497905 0.29747853 0.30111197 0.08847403
0.3814045 -0.0947765 0.023078306 0.43568298 0.34395075 0.3589674 0.13604786 0.6455841
0.38360304 0.5130364 0.102665894 -0.20579728 0.02768165 -0.2901984 0.24976996 0.093352586
0.25218728 -0.3878431 0.25358787 0.092717975 0.33493537 0.3118704 -0.06879118 0.13258949
0.40670854 0.00076651305 0.21374252 0.114727266 0.063125856 -0.029432753 -0.059751343 0.05486225
-0.12254835 -0.017104814 0.41197854 -0.08747347 -0.22203758 0.14582065 0.1492072 0.16936143
-0.32140183 0.19668649 0.32193136 0.49064678 0.14296497 0.24810429 0.65541905 0.34837186
-0.102105506 0.4103776 0.11822894 -0.28903264 -0.10057103 0.15740626 0.4225316 -0.036594715
00000000: 2634 acbc 92ce 41bd 4df1 5e3e 4d21 be3e
00000010: 4b7f 0bbd 5106 08be 0559 823e 9f64 453e
00000020: a576 d63e 0cb4 b6be 626d cdbd 033c f33e
00000030: 44d8 893e 56c1 af3a 603c b33e b376 57be
00000040: 942a c03e fccc bb3e b922 4dbe 2059 6c3b
00000050: d7c3 a1be d439 9c3e dffb f8bd 72de 953e
00000060: 4ea3 bf3e 668c 30bd 96a2 763e 4ea5 d4bd
00000070: d66a 283e f87f 803c cec3 783e c5ee ef3e
00000080: 0d20 f53e ee18 8e3d 8e9b ee3e 3e7b febc
00000090: c23c 7d3e 944c 8dbd df86 333e 82f7 7c3e
000000a0: 4f11 63bd 1f2b f13e 2ded cd3e 72dd 9d3e
000000b0: 1ace 633e 178a bdbd 8c53 943d bc9d 3dbe
000000c0: 6578 7d3e e3af ba3e bd7c ac3e d0a0 14bd
000000d0: 4f3a d63e 8c28 47be ec02 21be 393a 4b3e
000000e0: 7a60 ddbd f31d dfbe c644 ba3e 0a94 c0bd
000000f0: f782 9abe 39ce 573e b049 d43d 7b77 1a3e
00000100: 1635 98be 2b40 ea3e fe51 823e 3462 813e
00000110: cbc5 3a3e b849 be3e c40d 68bc aa65 b93e
00000120: 71a6 a83e 36ca 4bbd 338f ac3d 07d3 d23d
00000130: e7f5 693e 939c a2be e5fd e33e f479 bb3e
00000140: aa27 043f 11d2 a9bd b0f2 8abe 73a0 afbd
00000150: 9355 933e 97e8 70be 89ad 9cbe aa7c 963e
00000160: 0aaa 78be 6c81 e93e 353d 833e 8071 653e
00000170: 1809 81bd c57e 1e3e 76d1 f83e 2fc4 17be
00000180: 47b5 bd3e 350e 66be 6697 823e a2ca c43e
00000190: bcdf 9fbe 6967 71be d2ce c73e 442f 56be
000001a0: 584f 05bd 9bd2 ef3d 8b29 b9bd 2621 87be
000001b0: 6969 993e dce0 e43e e838 8f3e 477c 153d
000001c0: d4d7 8cbd 7d60 48be 877f 0b3e 153d f63e
000001d0: 80b8 8a3e 4672 62ba 6bc2 1abe 040b 00bc
000001e0: 5fb0 2c3e a93b 533e e013 79be 9637 903e
000001f0: d78c b03e dd66 f43e 330a 9fbd a4f1 913e
00000200: 8bfa a6bd 68e4 11be 8286 bc3e c44d 65be
00000210: 9bfb 4fbd 2317 a2be 6ea4 993e 4604 843e
00000220: 0817 21be 57e0 293e 7e95 903e 4146 ac3e
00000230: d8d9 8c3e 4df8 e1be 81c0 603e ac0d 1b3e
00000240: 799c cf3e c9cc d13e a30e aebe 64c8 c63e
00000250: a879 d43e 12d9 c4be 0139 ac3e 1b53 e0bd
00000260: 66f7 e53e c36b 77be 4282 73be 8269 a5be
00000270: 9aef 003f 624d c5bd df6d 9e3d 121e c1bb
00000280: 6146 ddbd ff94 d0be b09b 163d b0b2 04bd
00000290: d9d9 2b3e 3b73 d73e 3535 c43e 5ea6 233e
000002a0: c03a 9ebe 85ef 483e 2a93 ec3d 88bc 823e
000002b0: 3b22 3b3e f0c1 b23e 47c5 ae3e 3918 4b3e
000002c0: a490 cb3d f447 b1bd 3707 a2be b6fb 913e
000002d0: 284f 5f3e d1b3 c33e 27c7 ebbe 8e91 f3be
000002e0: 1f06 653d a553 6abe 0a95 16bd dba9 053f
000002f0: cb3b 9dbe 95b9 be3e 3a80 d43d 2a38 ce3e
00000300: dceb d83e e777 293e 387c abbe 2bba 9a3d
00000310: 15c9 7fbe 1b4f 983e 592b 9a3e df31 b53d
00000320: 7347 c33e 2e1a c2bd b70e bd3c d711 df3e
00000330: 501a b03e 93ca b73e 2150 0b3e 0045 253f
00000340: 9e67 c43e 5a56 033f 7f42 d23d 86bc 52be
00000350: a1c4 e23c e294 94be b2c3 7f3e a42f bf3d
00000360: b11e 813e 5f93 c6be 45d6 813e ece2 bd3d
00000370: a67c ab3e 7aad 9f3e 64e2 8cbd 8ac5 073e
00000380: 1a3c d03e d2ef 483a 52df 5a3e 21f6 ea3d
00000390: 2148 813d f51c f1bc d3bd 74bd 3db7 603d
000003a0: a1fa fabd 651f 8cbc daee d23e 4a25 b3bd
000003b0: d25d 63be 0252 153e c6c9 183e 156d 2d3e
000003c0: c88e a4be 2f68 493e 30d4 a43e 0e36 fb3e
000003d0: 6965 123e 0d0f 7e3e 8bc9 273f cc5d b23e
000003e0: b11c d1bd 031d d23e 0422 f23d 16fc 93be
000003f0: 2ff8 cdbd 1b2f 213e 1056 d83e 57e4 15bd

l1.bias f4 [8]
0.31749773 0.5664375 0.41847202 0.43592647 0.46640196 0.44149825 0.69555 0.2598834
00000000: 108f a23e 0c02 113f f741 d63e c131 df3e
00000010: 3dcc ee3e 0f0c e23e 910f 323f 700f 853e

l2.weight f4 [8, 8]
0.3801792 0.6283003 0.33062115 -0.5583568 -0.19419494 0.6060915 -0.23415701 0.40310192
-0.8868647 0.9974731 0.3012743 1.0591573 0.19264635 0.63750476 1.1725081 -0.7108002
0.48953313 0.734165 -0.9031707 0.43373913 -0.18521456 0.5610061 0.08679031 0.2941521
0.5720805 -0.038052212 0.8133797 -0.7421572 1.10094 -0.37727073 -0.088506624 0.79169303
0.02386397 -0.36500946 0.75637954 0.47192943 -0.80787504 1.0250704 0.073057674 0.65080816
0.7672573 0.08996556 -0.546522 -0.018574696 -0.2535225 1.0279288 -0.09196233 -0.09030266
0.35401282 -0.9489874 0.78098446 0.42888513 0.5187911 0.64772564 -0.5606983 0.90179294
1.0619805 0.5606182 -0.18650584 -0.8205177 1.0917212 -0.2619621 0.54587305 0.34150422
00000000: d9a6 c23e 4ad8 203f 2d47 a93e 79f0 0ebf
00000010: 0adb 46be d028 1b3f dbc6 6fbe 6063 ce3e
00000020: 9109 63bf 665a 7f3f a040 9a3e 7792 873f
00000030: 1645 453e 8333 233f bf14 963f 00f7 35bf
00000040: 16a4 fa3e 3df2 3b3f 3236 67bf 0e13 de3e
00000050: e3a8 3dbe 199e 0f3f 1ebf b13d 1b9b 963e
00000060: de73 123f a3dc 1bbd a739 503f 04fe 3dbf
00000070: 9aeb 8c3f a129 c1be f642 b5bd 65ac 4a3f
00000080: 5f7e c33c 85e2 babe 17a2 413f bca0 f13e
00000090: e6d0 4ebf 8235 833f 439f 953d 5d9b 263f
000000a0: f96a 443f dd3f b83d dee8 0bbf f629 98bc
000000b0: b3cd 81be 2c93 833f bf56 bcbd 9af0 b8bd
000000c0: 2b41 b53e d7f0 72bf 99ee 473f d596 db3e
000000d0: 7ecf 043f 59d1 253f ec89 0fbf e7db 663f
000000e0: faee 873f ad84 0f3f 63fb 3ebe 730d 52bf
000000f0: 85bd 8b3f e51f 86be 56be 0b3f a4d9 ae3e

l2.bias f4 [8]
-0.3668821 0.63928807 0.39910325 0.25467888 -0.06199407 0.27649432 0.12004848 0.30598912
00000000: f8d7 bbbe 62a8 233f 4357 cc3e 4565 823e
00000010: 7eed 7dbd aa90 8d3e fadb f53d 9baa 9c3e

l3.weight f4 [24, 8]
-1.2509285 0.6393105 0.4065306 -1.051851 -1.0447599 -1.3037633 -1.2515405 0.0040042587
-0.11735489 0.29584643 0.3585894 -0.81150913 0.11875984 -0.33052632 -0.6345542 -1.1852487
-0.11886954 -1.0321175 0.35742947 -0.3528137 -0.22228101 0.0107101295 0.41055354 0.12724276
0.34683993 -0.31137338 0.19113268 -0.22741543 -0.272025 0.21094151 -0.6907905 0.2941839
-0.88019496 0.31140402 0.24636191 -0.9024151 -0.84246826 0.22017911 -1.0906364 -0.021760477
-0.9718271 0.38633752 -0.9243795 0.30616567 -1.0772288 -1.1846495 -0.9401078 0.42732155
0.047461778 -1.1923919 0.36939305 -0.12139208 -0.85377586 0.51731193 -1.1886152 0.38983142
0.24691749 -0.6354579 0.018302036 -0.3126189 0.18421458 0.3220326 0.114757046 -1.2428465
-0.5552538 -0.8938292 -0.87892216 0.36020663 0.037246898 -0.41776246 0.39233464 -0.04234834
-0.092146434 0.11214437 -0.49543262 0.25735244 0.15539913 -0.31345078 -0.19660404 -0.5187474
0.22770084 -0.49900338 -0.70691276 -0.04000293 0.4456895 -0.12822588 0.0461756 -0.5758465
-0.13590926 0.28255492 -0.6270573 0.056225747 -0.6512362 -0.83360106 -0.5901539 0.35459998
-1.0801663 0.46310037 0.3719207 -0.75220555 0.0027196363 0.037831757 -1.165104 -1.0202259
-0.76310754 -0.21464978 -0.52665716 0.055449475 0.28115764 -0.6582564 0.4416494 -1.1650631
-0.0609793 0.1368881 -0.83941644 0.4521689 -0.8058765 -0.7106483 -0.30090687 0.20828784
-0.1356137 0.2610233 0.2973855 -0.5493621 0.10703143 -0.2895261 -0.5219005 0.011746926
-0.517527 -0.8687802 -0.7676888 0.53989255 -1.2651281 -1.2644539 0.27518803 0.3486916
0.068132006 -1.1752645 0.25757375 0.30089107 -0.37107491 -0.04804313 -0.29794416 0.22691745
0.02109267 -1.1894348 0.021093355 -0.24350612 0.20730074 0.26760057 0.36485022 -0.7369637
-0.8531982 0.49734604 -0.36042187 -0.41615766 0.11700005 -1.0063853 -0.2677675 -0.55544823
-0.6409589 0.29955488 0.1924171 -0.53413033 -1.3367869 0.49356306 -1.1994402 0.57010335
0.25875336 -0.26570523 0.15387619 0.3882546 -0.50363404 -1.2391213 -0.15024954 0.14873356
-0.19617006 -0.0057252436 0.15425186 -0.34859595 0.08585166 0.19563253 -0.47017562 0.26691538
0.0083436 -1.1245527 -0.38729212 0.3892616 -0.3679623 -1.178391 -0.03737356 0.41505986
00000000: 6d1e a0bf daa9 233f c724 d03e 0ea3 86bf
00000010: b1ba 85bf b7e1 a6bf 7b32 a0bf 2836 833b
00000020: c357 f0bd 2f79 973e 0899 b73e 10bf 4fbf
00000030: 5c38 f33d bf3a a9be 2572 22bf 3bb6 97bf
00000040: e071 f3bd 6d1c 84bf ff00 b73e ffa3 b4be
00000050: a29d 63be 8a79 2f3c 1334 d23e ed4b 023e
00000060: 0195 b13e 556c 9fbe 49b8 433e 97df 68be
00000070: dc46 8bbe 0d01 583e a5d7 30bf 469f 963e
00000080: 7554 61bf 5970 9f3e 4c46 7c3e ad04 67bf
00000090: 00ac 57bf a276 613e f999 8bbf 0743 b2bc
000000a0: a9c9 78bf 08ce c53e 23a4 6cbf bfc1 9c3e
000000b0: a2e2 89bf 98a2 97bf e8aa 70bf e4c9 da3e
000000c0: 4867 423d 4ca0 98bf 1621 bd3e 699c f8bd
000000d0: 0e91 5abf 8e6e 043f 8b24 98bf fc97 c73e
000000e0: f0d7 7c3e 5ead 22bf 27ee 953c 960f a0be
000000f0: bfa2 3c3e 75e1 a43e be05 eb3d 9815 9fbf
00000100: 1d25 0ebf fed1 64bf 0b01 61bf 016d b83e
00000110: 3490 183d f6e4 d5be 16e0 c83e 7475 2dbd
00000120: 45b7 bcbd f3ab e53d 58a9 fdbe b3c3 833e
00000130: f320 1f3e 9f7c a0be 9252 49be a1cc 04bf
00000140: 692a 693e 5f7d ffbe 3cf8 34bf 1dda 23bd
00000150: 6a31 e43e a54d 03be a022 3d3d ad6a 13bf
00000160: cc2b 0bbe 0aab 903e d486 20bf f84c 663d
00000170: 6ab7 26bf e166 55bf 5314 17bf 218e b53e
00000180: e442 8abf 7e1b ed3e 646c be3e 8b90 40bf
00000190: ed3b 323b 79f5 1a3d 2122 95bf c396 82bf
000001a0: 045b 43bf 27cd 5bbe 01d3 06bf fd1e 633d
000001b0: e5f3 8f3e 7e83 28bf df1f e23e ca20 95bf
000001c0: 6ec5 79bd 652c 0c3e ffe3 56bf af82 e73e
000001d0: ec4d 4ebf 0ced 35bf 7710 9abe 6849 553e
000001e0: 51de 0abe d9a4 853e ea42 983e ffa2 0cbf
000001f0: 4b33 db3d c43c 94be 459b 05bf 2e76 403c
00000200: a67c 04bf 6168 5ebf 4187 44bf 6636 0a3f
00000210: b8ef a1bf a0d9 a1bf 72e5 8c3e b587 b23e
00000220: cb88 8b3d 116f 96bf b5e0 833e 650e 9a3e
00000230: 88fd bdbe e0c8 44bd 238c 98be 0c5d 683e
00000240: 89ca ac3c 663f 98bf f9cb ac3c ab59 79be
00000250: a546 543e f102 893e a6cd ba3e a7a9 3cbf
00000260: 326b 5abf 24a4 fe3e 3789 b8be 9e12 d5be
00000270: b99d ef3d 3cd1 80bf d218 89be db31 0ebf
00000280: e215 24bf 425f 993e fd08 453e c4bc 08bf
00000290: d51b abbf 4cb4 fc3e 4287 99bf 4bf2 113f
000002a0: 527b 843e 840a 88be b891 1d3e 4fc9 c63e
000002b0: 29ee 00bf 879b 9ebf 04db 19be 9c4d 183e
000002c0: cee0 48be d39a bbbb 33f4 1d3e 2b7b b2be
000002d0: ffd2 af3d e553 483e dcba f0be 22a9 883e
000002e0: 98b3 083c 58f1 8fbf 274b c6be 4c4d c73e
000002f0: 8e65 bcbe 84d5 96bf 0515 19bd ba82 d43e

l3.bias f4 [24]
0.19691624 0.22505048 -0.41664937 -0.2027506 0.020710206 -0.13425969 0.4305059 0.09980187
-0.11477664 -0.20481038 0.18068425 0.102795705 -0.13277361 -0.054287143 -0.29297945 -0.062602736
0.06264287 -0.026715336 -0.31779733 -0.0876336 0.052784033 -0.2763445 -0.6225043 0.15998854
00000000: 69a4 493e a273 663e 1153 d5be da9d 4fbe
00000010: 73a8 a93c 5f7b 09be 456b dc3e ec64 cc3d
00000020: 0410 ebbd d0b9 51be 4b05 393e 8e86 d23d
00000030: cef5 07be 325c 5ebd 6701 96be dd35 80bd
00000040: e84a 803d 1fda dabc 55b6 a2be 3f79 b3bd
00000050: 1234 583d 077d 8dbe 715c 1fbf 09d4 233e
